gender_model.npz (npz, 1174 bytes, 4 tensors)

W0 f8 [3, 5]
1.184447909359084 -0.23908696579539834 -0.24482904389858504 -0.13460230289610556 -0.691439619403157 1.8201268089897062 -0.47208094701716224 -0.45426526768272957
-0.26857994185666967 -1.3443829327115986 1.199850389930509 -0.2313733038538767 -0.21933482430168813 -0.14405340587765283 -0.6927351148880476
00000000: 9634 a8a6 7ff3 f23f 94dc 7ed5 669a cebf
00000010: 33e3 53e0 8e56 cfbf fdd8 73f4 a53a c1bf
00000020: 0fd9 0ffb 4520 e6bf 23f0 f249 3d1f fd3f
00000030: 0b38 2001 9336 debf 0efc 19a1 ae12 ddbf
00000040: dcb3 a8ec 6930 d1bf 0ac0 94ad 9782 f5bf
00000050: 9982 8d52 9632 f33f bd24 9cf2 a39d cdbf
00000060: bff4 9fdc 2913 ccbf 819b 8f8d 5770 c2bf
00000070: da84 e7d4 e22a e6bf

b0 f8 [1, 5]
-0.7160951895322561 0.7074740240589948 0.6899410748766409 0.4098513122453223 2.0477345986090403
00000000: 93a5 7b75 40ea e6bf f54a 8390 a0a3 e63f
00000010: 6f64 184e ff13 e63f f93e 94ff 003b da3f
00000020: e14e 5fad c261 0040

W2 f8 [5, 1]
2.582179457942767 -0.9132151209558884 -0.8889367764413263 -0.5281748195047117 -2.6378658159569093
00000000: 3523 22b4 4da8 0440 b3fb d6ea 0e39 edbf
00000010: 7ede e089 2b72 ecbf 75fd 0ae1 cee6 e0bf
00000020: 952b 9664 591a 05c0

b2 f8 [1, 1]
-0.8500506103343453
00000000: 5896 6a56 9d33 ebbf
